models/global_ft_2025/ft_transformer.pt (torch, 6813 bytes, 2 tensors)

embeddings.0.weight f4 [37, 16]
0	0xbfa699a2	-1.3015635
1	0xbe9a06d4	-0.30083334
2	0x3fc60b40	1.5472183
3	0xbfd0338b	-1.626573
4	0x3ceb252f	0.028704254
5	0xbf29ce8a	-0.6633078
6	0xbfb8fc4f	-1.4451998
7	0x3f740e46	0.9533428
8	0x3e8c41e5	0.27394024
9	0x3f5eb5bc	0.86996055
10	0x3c91360f	0.017725972
11	0xbee0b9e6	-0.4389183
12	0x3ebd0048	0.36914277
13	0xbf2802db	-0.6562936
14	0x3f48c483	0.78424853
15	0xbecd6f6e	-0.40124077
16	0xbfab0a5e	-1.3362539
17	0x3f10b1f7	0.5652155
18	0x3ca4b159	0.020104097
19	0xbf92eb30	-1.1478024
20	0x3f306ef5	0.68919307
21	0x3ec60cb2	0.3868156
22	0x3df80d18	0.121118724
23	0xbf343625	-0.7039512
24	0xbed06a17	-0.4070594
25	0xc02b19f6	-2.6734595
26	0x3f026dd5	0.5094884
27	0x4027f8fe	2.6245723
28	0x3ececf00	0.40392303
29	0xbf17d76e	-0.59313095
30	0xbd8391b6	-0.064242765
31	0x3de4de1e	0.11175178
32	0x3f793214	0.9734204
33	0x3fa5e07d	1.2959133
34	0x3fee39d2	1.8611395
35	0x3fc82732	1.5636961
36	0xbf7e3161	-0.99294096
37	0x3f61aff0	0.88159084
38	0x3fb75dbb	1.4325479
39	0x3ebbb9aa	0.36665088
40	0x40485739	3.1303236
41	0x3f6cef73	0.9255287
42	0xc019c7e1	-2.4028246
43	0x3fb0c54c	1.381021
44	0xbf0d47d7	-0.55187744
45	0xbfa66472	-1.2999403
46	0x3fb03876	1.376723
47	0xbf767e4a	-0.9628645
48	0xbfc2d3cb	-1.5220884
49	0x3ff52837	1.9152898
50	0x3f9f5384	1.2447362
51	0x3ea28c57	0.31747696
52	0xbf8470d1	-1.0346929
53	0xbe8f1e96	-0.27953023
54	0x3d755a49	0.059900556
55	0x3f502823	0.81311244
56	0x3f92329b	1.1421694
57	0xbff282e6	-1.8946197
58	0xbe756cd2	-0.23967293
59	0xbf3ed41c	-0.74542403
60	0x400f0508	2.234682
61	0x3f48a584	0.78377557
62	0xbf34b64e	-0.70590675
63	0x3e08ff9d	0.13378759
64	0xbee42031	-0.4455581
65	0x3f491b87	0.7855763
66	0xbfd26045	-1.6435629
67	0xbfb529f8	-1.4153433
68	0x3fa78404	1.3087163
69	0xc007eaaa	-2.1236978
70	0xbe8f044c	-0.27932966
71	0xbfffd1fe	-1.998596
72	0xbe682e30	-0.22673869
73	0xbf6e1a1b	-0.93008584
74	0xbf97755b	-1.1832689
75	0x3fbafde7	1.4608735
76	0x3da99c09	0.082817145
77	0x3f037e7c	0.51364875
78	0x3f501b57	0.8129172
79	0xbdb797d4	-0.08964506
80	0x3e15ee80	0.14641762
81	0xbde08a09	-0.10963828
82	0xbf1862f8	-0.59526014
83	0xbe6f58a6	-0.2337366
84	0xbf9f2feb	-1.2436498
85	0x3e800f0e	0.25011486
86	0x3d6fd0bd	0.058548678
87	0xbda0aaa1	-0.07845045
88	0x3e6aaef3	0.229183
89	0x3f59239c	0.8481996
90	0xbf558116	-0.83400095
91	0x3e8cd3ec	0.27505434
92	0x3fc293aa	1.5201313
93	0x400bbd4b	2.1834285
94	0xbe2fdb83	-0.17173581
95	0xbf4a9fff	-0.79150385
96	0x3d67e604	0.056615844
97	0xbf29156f	-0.6604833
98	0x3ebbc79d	0.3667573
99	0xbe269e15	-0.16271241
100	0xbfba10e4	-1.4536405
101	0xbfebcd0c	-1.842195
102	0xbf4441da	-0.7666298
103	0xbf69f178	-0.9138408
104	0xbf8a5d43	-1.0809711
105	0x3fab5650	1.3385715
106	0x3f15a832	0.5845977
107	0xbf28fda2	-0.6601201
108	0x3f7d916a	0.9905001
109	0x3fb5b51a	1.4195893
110	0xbcf4cdba	-0.029883254
111	0x3fb37b48	1.4021997
112	0x3f682d49	0.906941
113	0xbf95e66f	-1.1710948
114	0x3cbb2300	0.022843838
115	0x3f9ed278	1.240798
116	0x3f38736b	0.72051114
117	0xbd24446a	-0.040104307
118	0xbff56605	-1.9171759
119	0xbf0eec4b	-0.55829304
120	0xbf9407c0	-1.1564865
121	0xc005d1ee	-2.090938
122	0x3e1bc81a	0.15213051
123	0x3f645882	0.8919755
124	0xbf6a8f13	-0.91624564
125	0x3f858d64	1.0433774
126	0xbf044086	-0.51660955
127	0x3d539bfc	0.05166243
128	0x3e76a9d5	0.24088223
129	0x3dcb3dc1	0.09923888
130	0xbeb5575e	-0.35418218
131	0x3f24cd67	0.6437592
132	0x3f90ea3d	1.1321484
133	0x3d2ded60	0.042462707
134	0x3f8782e8	1.0586824
135	0x3f24296a	0.6412569
136	0x3e6d2e0c	0.23162097
137	0xbfaf4880	-1.3694
138	0x3c9adde4	0.018904634
139	0xbe0d292b	-0.13785236
140	0xbff6bbcf	-1.9276065
141	0x3f1c944d	0.6116379
142	0xbebebabc	-0.37251842
143	0x3f1980bf	0.59962076
144	0x3ed7e84b	0.42169413
145	0x3dde688b	0.10859784
146	0x3f296d20	0.66182137
147	0xbda448e3	-0.080217145
148	0xbf9c4ab2	-1.2210295
149	0xbf25d359	-0.64775616
150	0xbebdebd6	-0.3709399
151	0xbfca5967	-1.5808533
152	0xbfd43a36	-1.6580265
153	0x3eda028a	0.42580062
154	0x3f9db7e7	1.2321748
155	0x3f8440bf	1.0332259
156	0x3f8558ad	1.0417687
157	0xbe08eab8	-0.13370788
158	0xbf7a954f	-0.97884077
159	0x3ecdcae2	0.4019385
160	0x3e1970a6	0.14984378
161	0x3e8a0f4f	0.26964805
162	0xbf998b6f	-1.1995677
163	0xbfa9f299	-1.327716
164	0xbe1924de	-0.1495547
165	0xbef2f628	-0.47453427
166	0xbcc0283d	-0.023456687
167	0xbe4b02be	-0.19825265
168	0x3f7a86c2	0.97861874
169	0xbfaa3a84	-1.3299108
170	0xbe73c3cf	-0.23805164
171	0x3f80a6a0	1.005085
172	0x3fc11643	1.5084919
173	0xbf495b03	-0.786545
174	0xbfa5bc08	-1.2948008
175	0x3fe7e212	1.8115866
176	0x3f1533d4	0.5828221
177	0xbe6d7da9	-0.23192467
178	0x3f0f32f5	0.5593713
179	0x3f806c6a	1.0033085
180	0x3f5024ed	0.81306344
181	0xbda3c451	-0.07996429
182	0x3f480de8	0.7814622
183	0x40077b6b	2.1169078
184	0xbf1b4af3	-0.6066124
185	0x3f8740ed	1.0566689
186	0xbf15db41	-0.5853768
187	0xbe1ca778	-0.1529826
188	0xbf544ec9	-0.82932717
189	0x3f53163d	0.8245581
190	0x40067f94	2.1015368
191	0x3f913a25	1.1345869
192	0x3f901c4e	1.1258638
193	0x3ed7b092	0.421269
194	0x403a6b88	2.9128132
195	0xbf97c52e	-1.185705
196	0x3f6e11f0	0.9299612
197	0xbeadfa07	-0.33979818
198	0x3efa1e98	0.48851466
199	0xbed8249a	-0.42215425
200	0x3eee7358	0.46572375
201	0x3fdc752c	1.7223258
202	0xc008a31a	-2.134955
203	0xbfb3511e	-1.400913
204	0x3ee2239f	0.44167802
205	0xbff1572d	-1.8854729
206	0xbf2754dc	-0.6536386
207	0x3f9f347b	1.2437891
208	0x3f96d7b3	1.1784576
209	0xbf26c1fb	-0.6513974
210	0xbf80ef45	-1.0073019
211	0xbf677347	-0.90410274
212	0xbf3b5517	-0.7317671
213	0xbf1972ec	-0.5994098
214	0x3e9227d5	0.28546014
215	0xbf2f8da6	-0.68575513
216	0x3fa44c70	1.2835827
217	0xbf1dd3ca	-0.6165129
218	0xbf0b84c6	-0.5449947
219	0xbf4f264f	-0.8091783
220	0x3ed60e94	0.41807997
221	0x3fa28ba5	1.2698866
222	0x3f51234e	0.81694496
223	0xbe6d8afd	-0.23197551
224	0x3f1afe47	0.60544246
225	0xbf0dc603	-0.55380267
226	0xbce9efa3	-0.02855665
227	0xbeac7a95	-0.33687273
228	0xbf6caa84	-0.92447686
229	0x400313f9	2.048094
230	0x3fc6cbb8	1.553092
231	0xbfbcc077	-1.4746236
232	0x3f2b9554	0.6702473
233	0xbf870b5e	-1.0550344
234	0xbf37bd5d	-0.7177332
235	0x3fbb38a9	1.4626666
236	0x3feb09ad	1.8362328
237	0x3eb396b5	0.35075918
238	0x3f620ef7	0.88304085
239	0x3f904ddb	1.127376
240	0xbf8b608b	-1.0888838
241	0xbddd22b6	-0.10797636
242	0xbef4e29b	-0.47829136
243	0x3de19dd4	0.110164315
244	0xbf3069e7	-0.68911594
245	0xbf6bd3a0	-0.9211979
246	0xbf433d9c	-0.76265883
247	0x3f6ff702	0.9373628
248	0xbe6b529c	-0.22980732
249	0x3e9b7219	0.30360487
250	0x3fe45811	1.7839376
251	0xbff7577d	-1.9323574
252	0xbe67e623	-0.22646384
253	0xbf948885	-1.1604162
254	0x3fc1f461	1.5152704
255	0xbfde889e	-1.7385442

embeddings.1.weight f4 [37, 16]
0	0xbeed2d85	-0.4632379
1	0xbf957a29	-1.1677905
2	0x3f4478e7	0.7674698
3	0xbffef7dd	-1.9919392
4	0xbf7f42bd	-0.9971121
5	0xbe851f55	-0.26000467
6	0xbf2eb04d	-0.68237764
7	0xbe96e1a3	-0.29469022
8	0x4024f853	2.5776565
9	0x3f3bcf5a	0.7336327
10	0xbb6e074f	-0.0036320274
11	0xbf831ca0	-1.0243111
12	0x3f47b5b4	0.7801163
13	0xbfc3f00f	-1.5307635
14	0xbf73b4ab	-0.9519755
15	0x3fc14f0d	1.5102249
16	0xbe2950df	-0.16534756
17	0xbfd0744c	-1.6285491
18	0x3ec41cb1	0.3830314
19	0xbf44b712	-0.76841843
20	0x3fa13b43	1.259621
21	0x3f27e098	0.6557708
22	0xbe66716a	-0.22504202
23	0x3ea6e10a	0.32593566
24	0xbfdc95ec	-1.7233253
25	0xbf5134a0	-0.81720924
26	0xbe68208c	-0.22668666
27	0x3e727247	0.23676406
28	0xbfeafec3	-1.8358997
29	0xbfd3e1c7	-1.6553277
30	0xbf9b23db	-1.2120317
31	0x3f58a221	0.8462239
32	0x3fcf8e1b	1.6215242
33	0xbedcfb55	-0.431605
34	0x3e3ae53e	0.18251511
35	0x3f0c64bf	0.54841226
36	0xbf030749	-0.5118299
37	0x3feb7919	1.8396331
38	0x3f9246cf	1.1427859
39	0x3f077a46	0.5292095
40	0x3f28a097	0.6587004
41	0x3f42543e	0.75909793
42	0x3ebbd63d	0.36686888
43	0x3ef36124	0.4753505
44	0x3f85e3f4	1.0460191
45	0x3f19135e	0.59795177
46	0x3f9249d6	1.1428783
47	0x3f4c03b0	0.79693127
48	0xbdcf1372	-0.10111131
49	0xbe081916	-0.1329082
50	0xbedff9ff	-0.4374542
51	0x403bc00a	2.9335961
52	0x3fdae4d8	1.7101088
53	0x3f58c4fa	0.8467556
54	0xc006fb22	-2.109078
55	0x3e8f3fb7	0.27978298
56	0xbff39ebd	-1.9032818
57	0x3f19efe2	0.6013166
58	0x3e915989	0.28388622
59	0xbdd1667c	-0.102246255
60	0x3f679da2	0.90474904
61	0x4057df34	3.3729982
62	0xbf1633f5	-0.5867303
63	0xbd312915	-0.04325207
64	0x3ea51610	0.32243395
65	0xbfb0b647	-1.3805627
66	0xbfe51fa2	-1.7900279
67	0xbe9f1cb4	-0.31076586
68	0xbf4f5371	-0.80986696
69	0x3f82ef4f	1.0229281
70	0xbd9a0e3a	-0.07522245
71	0xbf849647	-1.0358361
72	0x3f6616ec	0.89878726
73	0xbf2a2969	-0.66469437
74	0x3f2be233	0.6714203
75	0x3f54ac73	0.83075637
76	0xbf949f5a	-1.161113
77	0xbe10101e	-0.14068648
78	0xbfa44073	-1.2832168
79	0x3ecc385b	0.39886746
80	0x3dba3391	0.09091867
81	0xbf4e913e	-0.8069037
82	0x3f09c845	0.5382121
83	0x3d9d406b	0.076783024
84	0x3f60a8db	0.87757653
85	0xbd382194	-0.044953898
86	0x3e4224cc	0.1895935
87	0x3e81e3c5	0.25369087
88	0xbf906062	-1.1279414
89	0xbfbb3c25	-1.462773
90	0x3f2025df	0.62557787
91	0xbe53d817	-0.206879
92	0x3f9f0f23	1.2426494
93	0x3fd95d11	1.6981527
94	0xbf60cfd7	-0.8781714
95	0xbf631e2b	-0.8871791
96	0x3cf63380	0.030053854
97	0x3e635489	0.22200216
98	0xc00aae75	-2.166898
99	0x3c5893d9	0.013218843
100	0xbf099d24	-0.537554
101	0xbdf02428	-0.11725646
102	0x3f321c35	0.6957429
103	0x3fb4855b	1.4103197
104	0x3f5bf4e5	0.85920554
105	0x3f94604d	1.1591889
106	0x3e8f5fbd	0.2800273
107	0xbf2966a1	-0.66172224
108	0xbfd270b5	-1.6440645
109	0x3ed2abb6	0.4114663
110	0xbfbabe27	-1.458928
111	0x3fe5036c	1.7891669
112	0x3f6d2a05	0.9264224
113	0xbf6b581d	-0.91931325
114	0xbe665048	-0.22491562
115	0xc0038320	-2.0548782
116	0xbff58524	-1.9181256
117	0x3f623ca2	0.8837377
118	0xbfafacf9	-1.3724662
119	0xbfd697d7	-1.6765088
120	0xbfd75f30	-1.6825924
121	0xbe5bddda	-0.21471348
122	0xbfb33460	-1.4000359
123	0x3e8d857e	0.2764091
124	0x3ef9b54d	0.48771134
125	0xc00c8c52	-2.1960645
126	0x3f074fa6	0.5285591
127	0x3ded8b71	0.11598862
128	0x3f94500f	1.1586932
129	0x3f5c0a4e	0.85953224
130	0xbf9551f5	-1.1665636
131	0xbf207dfe	-0.6269225
132	0xbf28754d	-0.65803987
133	0x3e77d911	0.24203898
134	0xbfa34cf4	-1.2757859
135	0xbf499ba1	-0.78753096
136	0xbe3e5fda	-0.18591252
137	0xbec1b01e	-0.3782968
138	0x3dc014e7	0.09378987
139	0x3f29da07	0.6634831
140	0x3fcfee9f	1.6244696
141	0x3f57e7d0	0.8433809
142	0xbf9c5f32	-1.2216551
143	0x3f655803	0.8958742
144	0xbfa36071	-1.2763807
145	0xbf714448	-0.94244814
146	0x3e6acda8	0.22930014
147	0x3fa2a0de	1.2705343
148	0x3f7d2fcd	0.98901063
149	0xbf45e3e1	-0.7730084
150	0x3e61bc46	0.22044477
151	0xbd6c4ec8	-0.05769232
152	0xbea7a6c0	-0.32744408
153	0xbfce6351	-1.6124059
154	0x3fb7f34a	1.4371121
155	0xbf8e33e0	-1.1109581
156	0xbf933736	-1.1501224
157	0xbead2a6f	-0.33821437
158	0x3fab9102	1.3403628
159	0xbe2193a4	-0.15778977
160	0x3f77d514	0.96809506
161	0x3f143ca6	0.5790504
162	0xbd91ff6a	-0.071287945
163	0xbebd1012	-0.36926323
164	0xbe3194d7	-0.17341934
165	0x3d9321e0	0.071841955
166	0x3f4f725f	0.8103389
167	0x3feee0fa	1.8662407
168	0xb8dd56bb	-0.00010554256
169	0x3facf91b	1.3513521
170	0x3f64c7fe	0.89367664
171	0x3f466d88	0.7751088
172	0xbf96ed39	-1.1791145
173	0xc01a5a30	-2.4117546
174	0x3f58b794	0.8465512
175	0x3f1269d5	0.57192737
176	0x3f2d06e4	0.6758864
177	0xbdeed2a9	-0.11661274
178	0xbe56fe57	-0.2099546
179	0xbfb83bbc	-1.439323
180	0xbea4a0e1	-0.3215399
181	0x3f2f6a2a	0.6852137
182	0xbf713053	-0.9421436
183	0x3f1ded59	0.6169029
184	0x3eba9d6f	0.36448237
185	0x3ef1adf9	0.47203043
186	0xbd024218	-0.031801313
187	0xbed6f313	-0.41982326
188	0x3ed9ef93	0.42565593
189	0xbfce4a69	-1.6116458
190	0xbf3c5943	-0.735737
191	0xbf86cb59	-1.0530807
192	0x3f838b92	1.0276968
193	0xbfa36151	-1.2764074
194	0x3f80c1c5	1.0059134
195	0xbf7c94bd	-0.98664457
196	0xbe8d7393	-0.2762724
197	0xbff0b091	-1.8803884
198	0xbeba30b8	-0.36365294
199	0xc025e35a	-2.5920014
200	0x3e657c6a	0.22410741
201	0xbff8de97	-1.9442929
202	0x3f1124dc	0.5669687
203	0xbd8dbc87	-0.06920724
204	0xc001d41e	-2.0285716
205	0x3e3cb017	0.18426548
206	0x3f37b027	0.7175316
207	0xbea1f4ad	-0.31631985
208	0x3e89f9c1	0.2694836
209	0xbed3cb8d	-0.41366234
210	0xbe648346	-0.22315702
211	0xbd970f32	-0.07375945
212	0x3f522f6e	0.8210362
213	0xbf881f43	-1.063454
214	0xbf18eb59	-0.5973411
215	0x3fb94230	1.4473324
216	0x3f8d719b	1.1050295
217	0xbef97efe	-0.487297
218	0xc0042ec6	-2.0653548
219	0x3ee95ab5	0.45577016
220	0xbf9d6cd5	-1.2298838
221	0xbf353d71	-0.7079688
222	0xbec1b188	-0.37830758
223	0xbf08ecb6	-0.5348619
224	0x3fb70283	1.4297642
225	0xbf9e3b1d	-1.236179
226	0x3ee078d6	0.4384219
227	0x3f462849	0.7740522
228	0xbf8e0e82	-1.1098177
229	0xbfd179e9	-1.6365329
230	0x3f1f3acd	0.621991
231	0xc0081aeb	-2.126643
232	0x3fb7aad6	1.434901
233	0xc01c48af	-2.4419363
234	0x3f373ed5	0.7158025
235	0xc030c29f	-2.7618787
236	0xbffaf4da	-1.9605973
237	0xc01313f4	-2.2980928
238	0x3ee990ef	0.45618388
239	0x3f4c2cca	0.7975584
240	0xbf0b11ab	-0.54323834
241	0x3fa0d043	1.2563556
242	0x402d3802	2.7065434
243	0xbe85cc57	-0.2613246
244	0x400b87e1	2.1801684
245	0x3e023a3e	0.1271753
246	0x3ec396ea	0.38201076
247	0x3f969746	1.1764915
248	0x3e4e2f43	0.20135216
249	0x3eff6dba	0.49888402
250	0x3c55f7d5	0.013059576
251	0x3f10a14f	0.5649614
252	0xbf04e03e	-0.51904666
253	0xbe82ff8f	-0.255856
254	0x3f1c3893	0.61023825
255	0x3eef2cbe	0.46713823
