models/ft_transformer_v1.pt (torch, 201514 bytes, 29 tensors)

player_embedding.weight f4 [2686, 16]
0.53000116 -0.43970543 0.004604275 -1.1017299 0.33488646 -0.22675167 -0.54989064 1.126737
0.0587925 1.8530868 -1.574914 -1.0443132 0.10725831 1.076184 -0.798466 -0.0728512
0.89265466 -0.90904063 -0.4556351 1.7576501 0.7725893 -0.035571344 0.90468925 0.87696147
-0.060039483 -1.1660466 0.99192166 1.8300592 -0.65751916 -0.37222755 -0.7957221 0.9741217
0.33380103 -1.8842729 0.65249413 0.05259544 0.58152145 -0.54525304 0.044776667 0.5959965
-0.29544556 1.0011139 0.20567715 -1.2804297 -0.9887917 -1.8041627 0.85657847 -1.382621
0.124375425 -0.45513412 -0.0022204781 -0.40540913 -0.4543138 -0.989554 0.8051903 0.27370697
0.29878977 0.68041956 1.0858347 0.5453405 -1.5180571 -0.2066326 0.333911 -0.2547104
0.2464761 -1.1582904 0.50639415 1.0652713 -1.9675282 0.99703425 -0.51254755 1.1148964
0.45703882 -1.594956 0.58587795 -0.6409968 1.2356838 -0.99002224 0.6636539 -2.9537537
1.079291 -0.78840965 0.50854343 -0.3855922 -0.0412022 0.23322454 2.4163432 1.3924891
0.34367964 0.84346527 1.0865874 0.82392997 0.06566026 0.075231306 -0.83050084 0.8011629
0.58792776 -1.025073 -0.57413787 0.84752 0.5033393 0.51743543 -0.065540284 -0.46007445
-0.026087368 -2.6200712 0.25851706 1.4585224 0.15491484 -0.9155489 0.0037959057 -0.8710854
-1.0428023 0.56806034 -0.49450085 -1.1064535 0.57907134 2.2427588 -0.7954992 0.4160542
3.0435448 0.32986918 -0.05545229 -0.47314155 -1.7318102 -0.1378636 -1.004347 0.14910725
0.03164953 -0.61984676 2.4006047 0.2334453 -1.2121146 -1.5965327 -0.62325686 2.482513
-0.32818243 0.94326574 -0.39331004 -1.2101005 -0.84067273 -1.2680905 -1.8857166 0.5829299
1.1283894 -0.99151534 0.47726175 -0.8465884 0.6590158 0.10060256 -0.020859225 -0.30137897
-0.61660135 0.07532051 -0.4051123 0.6003979 -1.8799752 -0.5167232 0.25423145 -0.5134882
-0.54898137 -0.91521597 -0.36815906 0.11497953 -0.29052103 0.39994526 -1.6390308 2.2266562
-0.63497275 0.122103184 -1.0683383 -2.9799101 -0.46719852 -0.058684576 0.41888398 0.15859002
0.38708583 -0.82316434 0.77742094 0.4943236 0.6113325 -0.18252286 -0.00024890108 -0.46350515
0.5039223 -1.4492782 -0.8070345 1.0993477 -0.93834543 -1.6504279 0.563507 -0.2626752
-0.007759609 0.13359281 0.082057424 0.63750225 -0.23186956 -1.4571955 -0.3066406 -0.12424751
-0.86450475 -0.90373373 -1.3582884 -0.91669214 -0.24569845 1.0065721 -1.6939774 0.14459684
-0.6311638 -1.0520388 0.45352978 -0.39293304 -1.9856489 -0.75468326 -0.1493119 1.910498
0.40017387 -1.1913874 -0.85279363 1.087499 -0.9564873 0.342279 0.79447865 -0.45318827
-0.79422987 -0.81283104 1.4657433 -0.23237969 -0.7714147 2.1594484 0.8782335 0.17283083
-1.5627475 1.2352977 -2.1926847 0.36569375 -0.095691 -0.023724651 2.0711448 -0.23724268
1.4772371 -0.124055706 -0.3201079 -0.2576533 -0.4698815 0.4260078 -0.0815379 0.2927371
0.39656487 -0.05689571 0.59175175 -0.536205 0.19951619 -3.158147 -1.3691716 1.0560836
00000000: 28ae 073f 1221 e1be 75df 963b 7c05 8dbf
00000010: 3d76 ab3e 9731 68be a2c5 0cbf eb38 903f
00000020: 68d0 703d f331 ed3f c896 c9bf 0eac 85bf
00000030: 3faa db3d 66c0 893f 4568 4cbf 0333 95bd
00000040: 0485 643f e3b6 68bf 0149 e9be aefa e03f
00000050: 6ac8 453f 42b3 11bd b799 673f 8c80 603f
00000060: f6eb 75bd 0441 95bf 94ee 7d3f 613f ea3f
00000070: 2d53 28bf 9c94 bebe 72b4 4bbf 0a60 793f
00000080: f8e7 aa3e db2f f1bf db09 273f 516e 573d
00000090: 97de 143f b495 0bbf bd67 373d 3a93 183f
000000a0: a444 97be 8024 803f 089d 523e 1fe5 a3bf
000000b0: 7421 7dbf ceee e6bf ba48 5b3f baf9 b0bf
000000c0: 8bb8 fe3d 5707 e9be 7185 11bb c991 cfbe
000000d0: d29b e8be 6953 7dbf f420 4e3f 5223 8c3e
000000e0: f9fa 983e fa2f 2e3f a2fc 8a3f 6f9b 0b3f
000000f0: b24f c2bf 7f97 53be 62f6 aa3e 6769 82be
00000100: 3b64 7c3e dc42 94bf 0ca3 013f cf5a 883f
00000110: f7d7 fbbf a33d 7f3f 5136 03bf edb4 8e3f
00000120: fe00 ea3e 8527 ccbf 19fc 153f 5e18 24bf
00000130: e32a 9e3f 1972 7dbf 39e5 293f 4d0a 3dc0
00000140: 3526 8a3f 37d5 49bf e72f 023f 576c c5be
00000150: a3c3 28bd 6ad2 6e3e 5ea5 1a40 153d b23f
00000160: c7f6 af3e 57ed 573f 4c15 8b3f 13ed 523f
00000170: e378 863d df12 9a3d b49b 54bf 0319 4d3f
00000180: 6f82 163f 9835 83bf b3fa 12bf 12f7 583f
00000190: d8da 003f a676 043f fc39 86bd e18e ebbe
000001a0: 2db5 d5bc 3faf 27c0 595c 843e ddb0 ba3f
000001b0: ffa1 1e3e 6a61 6abf bbc4 783b 74ff 5ebf
000001c0: 8c7a 85bf 676c 113f 372f fdbe 45a0 8dbf
000001d0: 053e 143f 5c89 0f40 d6a5 4bbf 0e05 d53e
000001e0: 70c9 4240 9de4 a83e f121 63bd 9c3f f2be
000001f0: f5ab ddbf 1e2c 0dbe 718e 80bf 92af 183e
00000200: f0a2 013d 47ae 1ebf 82a3 1940 490c 6f3e
00000210: 9226 9bbf 2f5b ccbf c38d 1fbf 7ee1 1e40
00000220: 8707 a8be dd79 713f ef5f c9be 93e4 9abf
00000230: 5436 57bf ca50 a2bf 295f f1bf e53a 153f
00000240: 106f 903f f3d3 7dbf a75b f43e 04ba 58bf
00000250: 42b5 283f b708 ce3d f7e0 aabc 584e 9abe
00000260: 96d9 1dbf a441 9a3d e16a cfbe adb3 193f
00000270: 07a3 f0bf f947 04bf a02a 823e f673 03bf
00000280: 0b8a 0cbf 984b 6abf 587f bcbe 637a eb3d
00000290: 2cbf 94be a0c5 cc3e c3cb d1bf 8981 0e40
000002a0: 938d 22bf 3c11 fa3d 4fbf 88bf d9b6 3ec0
000002b0: a534 efbe 3d5f 70bd f677 d63e 6c65 223e
000002c0: 1d30 c63e e6ba 52bf 0f05 473f fc17 fd3e
000002d0: 4980 1c3f 46e7 3abe f07e 82b9 8c50 edbe
000002e0: 0d01 013f f381 b9bf d099 4ebf 6db7 8c3f
000002f0: 6837 70bf 3941 d3bf ff41 103f 5d7d 86be
00000300: 5144 febb 8ecc 083e b90d a83d 5933 233f
00000310: 376f 6dbe 6285 babf ffff 9cbe 7b75 febd
00000320: 2f50 5dbf 185b 67bf 65dc adbf 56ac 6abf
00000330: 6098 7bbe 5bd7 803f 40d4 d8bf 3211 143e
00000340: f393 21bf 35a9 86bf 0e35 e83e 852e c9be
00000350: be29 febf ec32 41bf 38e5 18be 338b f43f
00000360: 97e3 cc3e 627f 98bf af50 5abf 2b33 8b3f
00000370: 5adc 74bf 313f af3e f462 4b3f 4b08 e8be
00000380: a652 4bbf b215 50bf 7a9d bb3f f1f4 6dbe
00000390: 6f7b 45bf 6734 0a40 e9d3 603f 91fa 303e
000003a0: 1c08 c8bf 3c1e 9e3f f254 0cc0 363c bb3e
000003b0: a5f9 c3bd 335a c2bc a38d 0440 bfef 72be
000003c0: 1b16 bd3f eb10 febd 2fe5 a3be 22eb 83be
000003d0: 4f94 f0be b21d da3e 58fd a6bd a3e1 953e
000003e0: 8d0a cb3e 7a0b 69bd 0b7d 173f bb44 09bf
000003f0: f94d 4c3e 151f 4ac0 0441 afbf bf2d 873f

cont_encoder.weight f4 [16, 8]
-0.077408224 0.18514535 -0.12451817 0.09183756 0.013368614 0.22706844 0.06673909 0.061596494
0.08591123 0.14835106 0.06910096 0.15499504 0.17688751 0.630711 0.31380323 0.39703622
0.099737786 -0.0058508785 -0.020734115 -0.29118374 -0.12828739 0.27821562 0.08643638 0.4180137
-0.15622996 0.111124195 -0.059131023 -0.30308327 0.106042944 -0.20825134 0.03808684 -0.099722125
-0.49233523 -0.12578164 0.16180006 0.022581166 0.11230913 -0.19086078 0.11692427 -0.4377174
-0.19606759 0.089789 -0.023530426 0.3394262 0.0416854 0.108571656 0.09368936 -0.06862598
0.4423066 -0.23641054 -0.050507933 0.039042313 -0.11462163 0.40211752 -0.031639475 0.24584351
-0.32962164 -0.35731307 0.0759597 -0.17322396 -0.036585364 -0.09657003 0.020432493 0.09763981
-0.3002195 -0.06461415 0.23704223 0.05808882 0.046521 -0.38283515 -0.29827318 0.16759567
0.4662273 -0.08248218 0.12276526 -0.17208555 -0.12826633 0.36359236 -0.19810571 -0.097722225
-0.11703803 0.12590027 -0.32826176 0.11179681 -0.10420853 0.08482847 -0.055000555 -0.32981375
0.2584846 0.09884699 0.42282188 0.067341335 -0.009405081 -0.11775486 0.041699063 0.21947685
0.1838711 -0.24212013 -0.06530625 -0.10957089 0.030218484 0.07595584 0.12771101 0.6574529
-0.19850977 0.11953793 -0.10543894 -0.33450508 0.1457435 -0.3161042 -0.11105755 -0.20933643
0.08768248 -0.14745203 0.0038653044 -0.06724653 0.08995101 0.23298314 -0.058395114 -0.13153997
-0.019032596 -0.12174682 0.048993852 0.037393235 0.006847212 -0.2566252 -0.07477538 -0.5141955
00000000: 3488 9ebd be96 3d3e 6203 ffbd 5515 bc3d
00000010: 0808 5b3c a184 683e 81ae 883d 9b4c 7c3d
00000020: 3af2 af3d 57e9 173e ce84 8d3d 05b7 1e3e
00000030: 0022 353e 4776 213f d1aa a03e 5548 cb3e
00000040: 5343 cc3d bab8 bfbb 97da a9bc 0916 95be
00000050: c55d 03be 4772 8e3e 8f05 b13d e405 d63e
00000060: bffa 1fbe 1595 e33d 5f33 72bd bb2d 9bbe
00000070: 0b2d d93d d73f 55be f200 1c3d 1d3b ccbd
00000080: 5d13 fcbe e7cc 00be eaae 253e 23fc b83c
00000090: 5402 e63d 0271 43be fe75 ef3d 7f1c e0be
000000a0: f1c5 48be 4ce3 b73d e1c2 c0bc 45c9 ad3e
000000b0: 4fbe 2a3d d15a de3d 35e0 bf3d c78b 8cbd
000000c0: 0376 e23e 9b15 72be 68e1 4ebd d5ea 1f3d
000000d0: bfbe eabd 59e2 cd3e 6598 01bd 67be 7b3e
000000e0: 2bc4 a8be bdf1 b6be c290 9b3d 9f61 31be
000000f0: 89da 15bd 82c6 c5bd 0b62 a73c 61f7 c73d
00000100: 5fb6 99be 6c54 84bd 33bb 723e 8bee 6d3d
00000110: ce8c 3e3d f802 c4be 43b7 98be 339e 2b3e
00000120: 58b5 ee3e 6bec a8bd 5a6c fb3d 3237 30be
00000130: 4058 03be c728 ba3e 39dc 4abe 9722 c8bd
00000140: a2b1 efbd 00ec 003e ed11 a8be baf5 e43d
00000150: 486b d5bd 8dba ad3d 4348 61bd 59dd a8be
00000160: 1858 843e 4a70 ca3d 1c7c d83e 41ea 893d
00000170: c517 1abc 7629 f1bd a3cc 2a3d 8abe 603e
00000180: b548 3c3e 57ee 77be 48bf 85bd b466 e0bd
00000190: c18c f73c bc8e 9b3d adc6 023e d54e 283f
000001a0: 2546 4bbe 4dd0 f43d 5ff0 d7bd 4044 abbe
000001b0: c93d 153e 69d8 a1be 2472 e3bd 4a5c 56be
000001c0: df92 b33d aafd 16be 0c51 7d3b 8cb8 89bd
000001d0: 3c38 b83d 2293 6e3e b72f 6fbd 6ab2 06be
000001e0: 3fea 9bbc 6656 f9bd c7ad 483d a629 193d
000001f0: 945e e03b 6164 83be d623 99bd 51a2 03bf

cont_encoder.bias f4 [16]
0.2891293 0.59470737 -0.58844453 -0.2665139 -0.6964053 0.6451451 -0.24594592 0.634855
0.0710565 -0.12121422 -0.001945078 -0.2713708 0.12105986 0.32703784 -0.40353468 -0.09991805
00000000: c108 943e be3e 183f 4da4 16bf 8374 88be
00000010: 9e47 32bf 3b28 253f 3fd9 7bbe db85 223f
00000020: 1286 913d 293f f8bd fdf1 feba 1df1 8abe
00000030: 3bee f73d 8171 a73e 199c cebe d6a1 ccbd

transformer.layers.0.self_attn.in_proj_weight f4 [48, 16]
-0.257682 -0.0867947 0.30183175 0.094143815 -0.05317891 0.3301424 0.4085741 0.082088575
-0.06761396 -0.007100098 0.1558879 -0.29811582 0.49012235 0.0703189 0.40272745 0.24521768
-0.43625295 0.19985087 0.12710468 0.010829635 -0.29343215 -0.3901917 0.029477289 0.019477911
0.26580614 -0.2547907 -0.43552187 -0.060621534 -0.6104606 -0.07690469 -0.2214405 0.06481871
-0.0020780156 0.14745699 0.3248041 0.558702 0.38175258 -0.23628333 -0.26650247 0.016696513
-0.24903236 0.02509049 -0.06693551 0.059323035 -0.0569878 0.1257582 -0.26454985 -0.23437946
0.050431598 -0.030883012 -0.16922784 0.18269338 0.40912193 0.167959 -0.05468238 -0.52295154
0.07972718 0.21535107 -0.4562779 -0.2201553 -0.43904117 -0.076221064 -0.35808808 0.53778946
0.06435532 0.1669388 0.008101308 -0.51790243 -0.1919309 -0.31699935 0.19229484 -0.17805456
0.04291164 -0.24145696 -0.12230852 -0.22306438 0.11886079 0.28134176 0.4736202 0.32873592
-0.37991285 -0.0599658 0.50490314 0.14032368 -0.0033565923 0.14307754 0.5049622 0.08369357
0.15634716 -0.1435149 0.19826561 -0.059547994 0.7578312 0.29602 -0.117385946 0.3134887
-0.014606152 0.094757244 -0.467202 -0.2589389 0.33813 0.05382235 0.4236314 0.06847297
-0.38272366 0.007587885 -0.25135776 -0.07824241 -0.37371668 -0.017524192 0.43465358 0.15812376
0.10147097 0.39198694 0.33609515 0.14035638 -0.21570508 0.24861626 -0.0095742345 -0.18197937
0.3484726 0.055857267 0.20452374 0.26584905 -0.18971463 -0.03699087 -0.31103444 0.061522868
-0.14291202 0.1915448 0.31937286 0.3917861 -0.11634035 0.41124722 0.121236205 -0.111587845
0.10370303 0.30938217 0.048369426 -0.44786638 -0.14731748 -0.25223827 0.07252757 -0.39809874
0.16650666 -0.15889087 -0.17471556 0.0042352444 -0.38638553 0.10390841 -0.21724033 0.4695761
0.14350314 -0.14037459 -0.20772731 -0.19574244 0.23766337 -0.021710696 0.114219144 0.016294185
0.17161697 -0.047503453 -0.1313517 0.38816404 0.3878758 -0.24279183 -0.2880561 0.07999184
0.16806473 -0.07096549 -0.12537926 -0.09413307 -0.11393294 -0.17559119 0.100955874 0.03199888
0.15775828 0.15834413 0.094242685 -0.18714312 -0.29946026 -0.13306473 0.21062022 0.39016396
-0.32720247 -0.03247597 -0.004938675 0.29606798 -0.2107013 0.029989962 0.31383675 -0.28928474
-0.043983113 0.07059311 0.17260261 0.07357649 -0.29949167 -0.0063508363 0.17983048 0.017961899
-0.117226824 0.19546674 -0.23228905 0.058953915 -0.072520606 0.21904574 0.06858421 -0.15017433
-0.22383942 -0.047189415 -0.06367381 0.41565117 -0.053910926 -0.10080497 -0.11160336 -0.38171515
-0.48040873 0.017691303 0.020455213 0.02659262 0.06855239 0.2037344 -0.27811182 0.21565749
0.1468807 0.11661354 0.04511194 0.31550813 -0.16155113 -0.19016434 -0.13294657 0.007537299
0.4326344 -0.09429669 0.10876518 0.30177188 -0.2637456 -0.047613267 -0.107357636 0.27716804
-0.0020871619 0.2744905 -0.10722051 0.011708846 0.3463406 0.32619095 0.02723477 -0.17362212
0.18126373 -0.14310828 0.4637811 0.0760491 0.023735214 0.15767609 -0.23701641 0.02938606
00000000: e5ee 83be 6bc1 b1bd b189 9a3e 79ce c03d
00000010: 21d2 59bd 6d08 a93e a030 d13e 0e1e a83d
00000020: 3079 8abd f0a7 e8bb 14a1 1f3e a3a2 98be
00000030: 51f1 fa3e 5b03 903d 4b32 ce3e 581a 7b3e
00000040: 8c5c dfbe b5a5 4c3e bb27 023e c86e 313c
00000050: bd3c 96be 35c7 c7be 5b7a f13c 2490 9f3c
00000060: be17 883e ed73 82be b9fc debe 494e 78bd
00000070: 2547 1cbf 3580 9dbd 4cc1 62be acbf 843d
00000080: 512f 08bb f7fe 163e b94c a63e 1807 0f3f
00000090: 1375 c33e 42f4 71be 0373 88be 20c7 883c
000000a0: 5702 7fbe 928a cd3c 7c15 89bd b6fc 723d
000000b0: 0a6c 69bd c2c6 003e 1473 87be 2b01 70be
000000c0: 5d91 4e3d 5ffe fcbc 104a 2dbe f913 3b3e
000000d0: 6e78 d13e 72fd 2b3e a2fa 5fbd 27e0 05bf
000000e0: 0148 a33d fe84 5c3e 429d e9be 6470 61be
000000f0: 01ca e0be ca19 9cbd 5257 b7be 92ac 093f
00000100: b9cc 833d 01f2 2a3e 59bb 043c 4195 04bf
00000110: 8989 44be bd4d a2be f0e8 443e ef53 36be
00000120: 1ec4 2f3d 7e40 77be e47c fabd fd6a 64be
00000130: 496d f33d 070c 903e 597e f23e 1350 a83e
00000140: f083 c2be b39e 75bd 5541 013f 03b1 0f3e
00000150: 46fa 5bbb eb82 123e 3445 013f 8967 ab3d
00000160: 7819 203e 92f5 12be 2406 4b3e 99e8 73bd
00000170: 3a01 423f ef8f 973e 0b68 f0bd 9781 a03e
00000180: a44e 6fbc 1610 c23d 1a35 efbe a493 84be
00000190: 601f ad3e d374 5c3d 37e6 d83e 8e3b 8c3d
000001a0: 5bf4 c3be cba3 f83b f7b1 80be 8f3d a0bd
000001b0: cb57 bfbe e58e 8fbc ea8a de3e 32eb 213e
000001c0: 03d0 cf3d 83b2 c83e aa14 ac3e 95b9 0f3e
000001d0: cbe1 5cbe 4395 7e3e 40dd 1cbc cd58 3abe
000001e0: 006b b23e 97ca 643d ac6e 513e 5e1d 883e
000001f0: 8d44 42be bd83 17bd e83f 9fbe 67ff 7b3d
00000200: 8757 12be 5224 443e d784 a33e 3098 c83e
00000210: d943 eebd ff8e d23e b04a f83d 2b88 e4bd
00000220: 4162 d43d 5767 9e3e 051f 463d be4e e5be
00000230: 65da 16be 6025 81be 5689 943d 99d3 cbbe
00000240: b980 2a3e 4ab4 22be a3e8 32be cec7 8a3b
00000250: 53d4 c5be efcd d43d 4074 5ebe 476c f03e
00000260: 7df2 123e 5bbe 0fbe 78b6 54be b570 48be
00000270: 075e 733e a1da b1bc baeb e93d 627b 853c
00000280: 5cbc 2f3e fb92 42bd 0f81 06be 70bd c63e
00000290: a897 c63e 6c9e 78be 177c 93be c3d2 a33d
000002a0: 2919 2c3e 5b56 91bd 6c63 00be d7c8 c0bd
000002b0: ac55 e9bd 2dce 33be f4c1 ce3d 4211 033d
000002c0: 638b 213e f724 223e 4f02 c13d 72a2 3fbe
000002d0: db52 99be 1f42 08be d4ac 573e 92c3 c73e
000002e0: 1587 a7be 8605 05bd 9cd4 a1bb 3996 973e
000002f0: 15c2 57be 82ad f53c 36af a03e 211d 94be
00000300: a327 34bd 1f93 903d bdbe 303e 45af 963d
00000310: f956 99be ad1a d0bb 7b25 383e d524 933c
00000320: 9e14 f0bd 6f28 483e 2edd 6dbe a979 713d
00000330: af85 94bd 874d 603e e175 8c3d 4dc7 19be
00000340: 2936 65be b049 41bd 6a67 82bd 3bd0 d43e
00000350: b4d1 5cbd d672 cebd 4d90 e4bd 2b70 c3be
00000360: 22f8 f5be 5aed 903c b191 a73c c4d8 d93c
00000370: 3265 8c3d c09f 503e ac64 8ebe 51d5 5c3e
00000380: e567 163e 14d3 ee3d 4cc7 383d 488a a13e
00000390: a96d 25be 71ba 42be 2523 08be 72fb f63b
000003a0: 4282 dd3e 9f1e c1bd 47c0 de3d d881 9a3e
000003b0: aa09 87be 2106 43bd 52de dbbd f8e8 8d3e
000003c0: c4c8 08bb 058a 8c3e 6d96 dbbd 76d6 3f3c
000003d0: 8e53 b13e 8002 a73e 741b df3c ffc9 31be
000003e0: 339d 393e fa8a 12be b774 ed3e a1bf 9b3d
000003f0: 5a70 c23c d775 213e 6eb4 72be 09bb f03c

transformer.layers.0.self_attn.in_proj_bias f4 [48]
-0.20948283 0.16821133 -0.13286655 -0.20242439 0.090032786 -0.25047895 -0.032545954 0.07531078
0.16974582 0.116229005 0.02187638 0.24258927 -0.014500517 -0.09026877 -0.112029396 -0.0955401
-0.0002430316 0.000110997775 0.00032747866 0.00032532524 -0.00025433503 -0.00035912386 9.5097144e-05 -0.0009141946
-8.9502464e-05 -0.00046213059 0.0006324245 2.337612e-05 -0.0002604111 -5.3065436e-05 0.0004828432 0.00029355672
-0.16244489 0.12624829 -0.018131074 0.059035398 0.04500282 0.14655064 -0.090915166 0.06847586
0.08822915 0.15662034 0.14185892 -0.041140333 0.18440472 -0.10830173 0.12085972 0.057290353
00000000: ab82 56be 973f 2c3e 2b0e 08be 5748 4fbe
00000010: 1c63 b83d c73e 80be e84e 05bd 8a3c 9a3d
00000020: d9d1 2d3e 7909 ee3d 1836 b33c 5269 783e
00000030: 9493 6dbc d5de b8bd ab6f e5bd 87aa c3bd
00000040: 4cd6 7eb9 7ac7 e838 71b1 ab39 6a90 aa39
00000050: 4558 85b9 ca48 bcb9 e46e c738 90a6 6fba
00000060: 45b3 bbb8 1e4a f2b9 4ac9 253a d617 c437
00000070: c987 88b9 9492 5eb8 1e26 fd39 84e8 9939
00000080: f457 26be 3b47 013e 9e87 94bc 1acf 713d
00000090: e154 383d 5f11 163e bb31 babd 123d 8c3d
000000a0: 7cb1 b43d 1561 203e 7743 113e c482 28bd
000000b0: 97d4 3c3e 4ccd ddbd 4d85 f73d 4aa9 6a3d

transformer.layers.0.self_attn.out_proj.weight f4 [16, 16]
0.18660374 -0.12924808 0.14505887 0.10528004 0.05389289 -0.1790202 0.11730247 -0.28464788
-0.11382872 0.21891943 -0.009204445 0.2430976 -0.22005759 -0.14429708 0.01543916 0.054934327
-0.038155664 -0.022250062 -0.0013797695 0.13987434 0.14194807 0.0571783 0.12100886 0.0958985
-0.08061523 -0.12997882 -0.04715587 -0.12716322 0.09663126 0.024954645 -0.04021826 0.04759536
0.1344937 -0.11006273 0.057568025 -0.12971668 0.14031324 -0.026448352 -0.047256336 -0.15832432
-0.18026277 -0.029341003 -0.16498663 0.05698412 -0.15308484 0.120093755 0.049293514 -0.14648509
0.09315212 -0.019209545 -0.14192371 0.09270331 -0.313739 -0.14077671 0.07595452 0.07036068
-0.18376179 -0.18667327 0.10450212 -0.18774255 -0.115000226 0.13663648 -0.24040098 -0.09121493
-0.05806292 -0.14646976 -0.0901635 -0.02490293 -0.027897146 -0.11322993 -0.042399622 0.0645988
0.05094503 -0.13368967 0.04226352 0.12725283 -0.056392755 0.122697294 -0.111815244 -0.12027807
0.007494977 -0.09811716 0.037346415 0.08987362 0.18820237 0.08080219 -0.095295906 -0.14127092
0.076372884 0.23479302 0.088765696 0.14366347 0.02145738 -0.15454596 0.06777321 0.118345544
-0.16110379 -0.09329783 0.044388454 -0.15566494 -0.16278721 -0.18902807 -0.19014855 -0.019807057
-0.09408624 0.022692554 0.009423456 -0.115105614 0.27002037 -0.080064654 0.14951193 0.046041228
0.007826451 0.027157336 -0.00044873488 -0.04696741 -0.21190533 -0.018859975 -0.16868268 0.04929637
-0.0028253344 0.16759427 0.037891924 0.12651698 0.030563723 0.10192233 -0.09547102 -0.19975181
0.14581978 -0.024922844 -0.1414692 -0.17661706 0.06435474 0.07272489 -0.2595408 0.16408534
-0.08936182 -0.053405873 0.02232641 0.12834562 0.19490464 -0.034485403 -0.10630944 -0.16289993
0.21943103 -0.051290706 0.013106292 0.16980754 -0.037802335 -0.14881043 0.16655341 -0.09872278
-0.07474722 -0.11568134 -0.21769235 -0.046348765 0.0046824287 0.042068735 -0.19021407 -0.048217885
-0.22086523 0.031066757 -0.23117316 -0.02178807 -0.20761678 -0.16378972 -0.121586144 0.27955645
-0.17056033 0.18534532 -0.22823706 0.12564892 0.18932359 0.0756649 0.19173405 0.055711593
0.028847875 0.02637532 0.00641258 -0.24734344 -0.058073416 0.07448183 -0.19459058 0.032658797
-0.009218354 -0.021104572 0.009023014 -0.028731704 0.081186295 0.06167139 -0.13756362 0.06982233
0.08119874 0.0964652 -0.1352925 -0.054657508 -0.11419689 0.13021752 0.099693514 0.09574707
0.1769628 -0.09137468 -0.009367226 -0.26033163 0.04896269 -0.06134073 -0.15921184 -0.0016577345
-0.05005187 0.16353317 0.045425653 -0.122410044 0.16037527 -0.050289806 -0.11875577 -0.11744197
0.05404865 -0.118539415 0.10648072 -0.13616124 0.22831102 -0.11466218 0.076702245 0.03664938
0.0076063443 0.18863541 -0.2687159 0.16738504 -0.17058371 0.050234366 -0.16590233 0.0037661232
-0.09723377 0.23101746 0.005197743 -0.05645415 0.15077989 0.17335054 -0.17688398 -0.34101316
-0.06362749 0.2662659 0.09983274 0.28022495 -0.019574907 0.14488934 0.11211178 0.0024592872
-0.14551054 0.074538924 0.1159168 0.1577994 0.05359068 -0.16346662 0.012768554 0.20438167
00000000: 0d15 3f3e 9c59 04be 508a 143e 109d d73d
00000010: cbbe 5c3d 1251 37be 473c f03d 5ebd 91be
00000020: 081f e9bd 6a2c 603e 3ece 16bc 94ee 783e
00000030: c756 61be 9dc2 13be 88f4 7c3c d102 613d
00000040: 1d49 1cbd c345 b6bc 62d9 b4ba 383b 0f3e
00000050: d65a 113e cb33 6a3d 7ed3 f73d 6f66 c43d
00000060: 9919 a5bd 2b19 05be 8326 41bd 1337 02be
00000070: 9ce6 c53d af6d cc3c e7bb 24bd 5af3 423d
00000080: b7b8 093e 9268 e1bd 73cc 6b3d 73d4 04be
00000090: 46ae 0f3e 37aa d8bc dc8f 41bd c51f 22be
000000a0: ce96 38be 8b5c f0bc 41f2 28be 2e68 693d
000000b0: 46c2 1cbe b7f3 f53d ffe7 493d 3000 16be
000000c0: 8ac6 be3d 565d 9dbc 7354 11be 3cdb bd3d
000000d0: 66a2 a0be c527 10be 0b8e 9b3d 4319 903d
000000e0: 0d2c 3cbe 4727 3fbe 3505 d63d 953f 40be
000000f0: 3d85 ebbd 6fea 0b3e ad2b 76be e5ce babd
00000100: 62d3 6dbd 2bfc 15be a4a7 b8bd 3b01 ccbc
00000110: 8e88 e4bc 18e5 e7bd 3aab 2dbd 604c 843d
00000120: bcab 503d f2e5 08be 831c 2d3d 914e 023e
00000130: 17fc 66bd b848 fb3d 64ff e4bd 5954 f6bd
00000140: 6d98 f53b a6f1 c8bd 8ef8 183d a90f b83d
00000150: 1fb8 403e 9e7b a53d 802a c3bd 53a9 10be
00000160: 6369 9c3d 956d 703e caca b53d 841c 133e
00000170: 63c7 af3c 4c41 1ebe aecc 8a3d 265f f23d
00000180: 64f8 24be ef12 bfbd abd0 353d a166 1fbe
00000190: b1b1 26be 9390 41be 4db6 42be 6942 a2bc
000001a0: 49b0 c0bd bce5 b93c d764 1a3c 7ebc ebbd
000001b0: 1c40 8a3e f0f8 a3bd a819 193e ba95 3c3d
000001c0: 843a 003c 1079 de3c 2d44 ebb9 e660 40bd
000001d0: b6fd 58be 3c80 9abc 27bb 2cbe feea 493d
000001e0: 3f29 39bb d59d 2b3e 9034 1b3d ab8d 013e
000001f0: c660 fa3c a8bc d03d 4f86 c3bd bd8b 4cbe
00000200: c851 153e fe2a ccbc 4ddd 10be 1adb 34be
00000210: 6bcc 833d caf0 943d 88e2 84be fd05 283e
00000220: 5403 b7bd 1ec0 5abd e0e5 b63c 096d 033e
00000230: 1595 473e 9140 0dbd c4b8 d9bd 3dcf 26be
00000240: 87b2 603e 3416 52bd c6bb 563c 07e2 2d3e
00000250: 9fd6 1abd c361 18be fa8c 2a3e 2b2f cabd
00000260: 1215 99bd 57ea ecbd beea 5ebe 34d8 3dbd
00000270: 0f6f 993b 4450 2c3d 7ac7 42be 1e80 45bd
00000280: 7f2a 62be b67f fe3c a8b8 6cbe e57c b2bc
00000290: 7e99 54be 7eb8 27be 2802 f9bd 0622 8f3e
000002a0: 5ea7 2ebe 2acb 3d3e fab6 69be 1caa 003e
000002b0: 0bde 413e 33f6 9a3d ee55 443e d731 643d
000002c0: 6152 ec3c 0e11 d83c 9f20 d23b 9947 7dbe
000002d0: 64de 6dbd ee89 983d c142 47be 3bc5 053d
000002e0: 9408 17bc 7fe3 acbc 44d5 133c c05e ebbc
000002f0: 0045 a63d 249b 7c3d 7add 0cbe 02ff 8e3d
00000300: 864b a63d 8c8f c53d 1e8a 0abe 8de0 5fbd
00000310: 0fe0 e9bd be57 053e 1d2c cc3d 0a17 c43d
00000320: bc35 353e a622 bbbd fe78 19bc 304a 85be
00000330: 1a8d 483d 6b40 7bbd 6e08 23be 5748 d9ba
00000340: 3103 4dbd 3d75 273e 4010 3a3d 1eb2 fabd
00000350: 6a39 243e affc 4dbd 3a36 f3bd 6a85 f0bd
00000360: 1e62 5d3d cbc4 f2bd 9012 da3d da6d 0bbe
00000370: 5dca 693e 01d4 eabd 1116 9d3d a91d 163d
00000380: a43e f93b a429 413e 2195 89be fc66 2b3e
00000390: 7fad 2ebe 8dc2 4d3d 4de2 29be 10d1 763b
000003a0: 8022 c7bd d78f 6c3e d451 aa3b 773c 67bd
000003b0: 0b66 1a3e ce82 313e 1321 35be 4799 aebe
000003c0: 214f 82bd 0154 883e 1c75 cc3d a579 8f3e
000003d0: 8e5b a0bc df5d 143e dc9a e53d fe2b 213b
000003e0: b700 15be dda7 983d ca65 ed3d 2a96 213e
000003f0: e781 5b3d cb63 27be 3233 513c 6e49 513e

transformer.layers.0.self_attn.out_proj.bias f4 [16]
-0.013521762 0.13009699 -0.1379811 0.020679468 -0.08779704 0.08715182 0.025204105 0.12714568
-0.105568476 -0.13492201 -0.007198497 -0.22823337 0.095762976 0.13050449 0.07260515 -0.0746842
00000000: 618a 5dbc 2538 053e eb4a 0dbe fd67 a93c
00000010: efce b3bd a77c b23d d778 ce3c 7a32 023e
00000020: 4934 d8bd ff28 0abe 5fe1 ebbb 02b6 69be
00000030: 611f c43d f8a2 053e 02b2 943d 08f4 98bd

transformer.layers.0.linear1.weight f4 [32, 16]
0.0860524 -0.20308983 -0.14468846 -0.004370166 0.18648852 -0.06936271 0.0031464682 0.044551946
0.13648371 -0.29626682 -0.17208846 -0.13795556 -0.13501418 -0.13625383 0.07197355 0.05099755
0.024368413 -0.20667262 -0.09764367 0.047848128 0.11370165 0.1223658 0.2810976 -0.3531695
0.028239235 -0.13553226 -0.082199715 -0.15512447 0.15740612 0.027696427 0.10974465 -0.12593217
-0.019014698 -0.22400282 0.41162315 0.119458586 0.24700123 -0.09592293 -0.0970495 0.2747419
-0.23160139 -0.1637381 -0.03209901 0.05942719 0.15953426 0.1682665 0.08630157 -0.06335098
-0.1756144 -0.24530202 0.10704944 -0.2613312 0.32458144 0.21250246 0.2520123 0.08491029
-0.12732683 0.1522353 -0.0655846 0.14274013 -0.16825028 -0.28502524 -0.18308881 -0.118032806
0.018100198 -0.17669885 -0.08757219 -0.1757628 0.04987955 0.161251 -0.28803003 -0.02037171
-0.09344326 -0.20477863 -0.112991095 0.3217021 0.07378223 -0.045630045 0.2604715 -0.1275932
0.18124609 -0.16811007 0.2006407 -0.21259 0.11876079 -0.05605409 -0.040567473 -0.06671549
-0.10347491 -0.11600236 0.11155275 0.17984246 -0.14667954 0.05069131 -0.25404447 0.033420417
0.0020067934 -0.25860426 -0.19126292 -0.15722127 0.08124507 -0.1109867 0.052792385 -0.32234362
0.0012167052 0.043880727 0.20914268 0.43698904 0.1501661 0.10324741 -0.2919267 -0.090646915
0.0059334743 0.11402781 0.1874398 0.04130865 -0.21116509 0.060709447 0.28430724 -0.13341933
0.04565426 0.23526753 0.18733084 -0.20032547 0.22033827 0.2219558 0.21725854 -0.23279724
-0.08607103 -0.096112184 0.16397987 0.07396833 0.024577804 -0.042469837 -0.20110355 0.10626997
-0.2501251 -0.04484266 0.022766283 0.09539391 0.12168049 0.06998716 0.30050832 -0.17822771
-0.12240089 0.24142161 0.094440505 0.09874387 0.4296388 -0.33791822 0.084455155 -0.08270019
-0.30613324 0.27511796 0.0052587115 -0.01949092 -0.26297545 0.3127446 -0.26682234 -0.2596186
-0.107507646 0.13459033 0.015306933 -0.16358691 0.026932972 0.012961623 -0.03138044 -0.1778218
-0.123964004 -0.09593213 0.09387502 0.018491717 -0.26116973 -0.18660364 0.11166523 0.16177611
0.15972355 -0.027471403 -0.23555942 0.02046403 0.00993242 0.013719536 0.023396352 0.17805506
-0.19220208 0.28871137 -0.06013167 -0.0077031376 -0.26219988 0.010414196 0.1193389 -0.19122733
-0.23223409 -0.041795228 -0.05193069 -0.013788763 0.0962362 0.08005724 -0.0707409 -0.113033965
-0.32046935 0.2358653 0.20351863 0.22554152 -0.10041966 0.14194217 0.2390654 -0.004724713
-0.08099625 -0.10110377 0.10287183 -0.20123935 0.4131782 0.05591712 0.058974072 -0.029558148
0.18782042 -0.22615604 0.14208679 -0.0340304 -0.15844648 0.03766126 0.26223668 0.04967119
-0.12895182 0.078086056 0.074809775 -0.28699654 -0.047233928 -0.2971339 -0.24184011 0.18586817
0.2655699 0.10862989 0.09250524 0.24342537 -0.02438367 -0.061869625 0.3344743 -0.08354121
0.18090501 0.07820427 0.23731382 -0.010740697 0.04419678 -0.19461344 0.12311647 -0.13850287
-0.023988228 0.0824265 -0.0603574 0.010831723 0.14740188 -0.19535443 0.13978845 0.0053227185
00000000: 3e3c b03d c8f6 4fbe 3629 14be 9c33 8fbb
00000010: d9f6 3e3e 090e 8ebd fa34 4e3b 1a7c 363d
00000020: 63c2 0b3e 49b0 97be f537 30be 3944 0dbe
00000030: 2841 0abe 2086 0bbe de66 933d cfe2 503d
00000040: 44a0 c73c fda1 53be 68f9 c7bd 66fc 433d
00000050: 69dc e83d ec9a fa3d 06ec 8f3e a2d2 b4be
00000060: f855 e73c f8c8 0abe 5358 a8bd f3d8 1ebe
00000070: 122f 213e 9ee3 e23c cec1 e03d 5df4 00be
00000080: b6c4 9bbc ff60 65be 45c0 d23e b4a6 f43d
00000090: e4ed 7c3e 3e73 c4bd e3c1 c6bd f8aa 8c3e
000000a0: ea28 6dbe f6aa 27be 407a 03bd ed69 733d
000000b0: f35c 233e 0e4e 2c3e e1be b03d 29be 81bd
000000c0: 43d4 33be 7430 7bbe bd3c db3d 34cd 85be
000000d0: 8a2f a63e 3f9a 593e c207 813e 72e5 ad3d
000000e0: f761 02be 92e3 1b3e 3851 86bd 782a 123e
000000f0: cd49 2cbe d4ee 91be a27b 3bbe 2fbb f1bd
00000100: de46 943c 8bf0 34be 0c59 b3bd 2afb 33be
00000110: 804e 4c3d fb1e 253e ac78 93be 93e2 a6bc
00000120: 2e5f bfbd 7db1 51be e067 e7bd 23b6 a43e
00000130: 231b 973d 92e6 3abd 855c 853e cba7 02be
00000140: 9398 393e 0c25 2cbe c174 4d3e 31b1 59be
00000150: db38 f33d f998 65bd 142a 26bd 21a2 88bd
00000160: a7ea d3bd a592 edbd c575 e43d 9f28 383e
00000170: 2933 16be b1a1 4f3d 1e12 82be d9e3 083d
00000180: 6884 033b c767 84be 6dda 43be 9dfe 20be
00000190: d163 a63d ff4c e3bd d43c 583d 390a a5be
000001a0: da79 9f3a 47bc 333d 8029 563e 07bd df3e
000001b0: 24c5 193e 6173 d33d 6b77 95be 17a5 b9bd
000001c0: 976d c23b 6a87 e93d 38f0 3f3e 4233 293d
000001d0: a93b 58be 78aa 783d b890 913e 149f 08be
000001e0: f6ff 3a3d f9e9 703e a8d3 3f3e 1f22 4dbe
000001f0: 5ba0 613e 6248 633e 0679 5e3e 6662 6ebe
00000200: 0246 b0bd 77d6 c4bd 57ea 273e b57c 973d
00000210: 6457 c93c daf4 2dbd 17ee 4dbe 12a4 d93d
00000220: 6610 80be f0ac 37bd 5b80 ba3c e25d c33d
00000230: 9f33 f93d 6e55 8f3d 3adc 993e 5381 36be
00000240: 51ad fabd 3a37 773e 066a c13d 3a3a ca3d
00000250: 9ef9 db3e 9e03 adbe d3f6 ac3d b85e a9bd
00000260: 7fbd 9cbe 43dc 8c3e 4551 ac3b 6cab 9fbc
00000270: b8a4 86be 0f20 a03e f09c 88be bbec 84be
00000280: f82c dcbd 0cd2 093e eec9 7a3c 5483 27be
00000290: 89a2 dc3c fd5c 543c c788 00bd eb16 36be
000002a0: d7e0 fdbd 1178 c4bd 8c41 c03d f17b 973c
000002b0: 0ab8 85be 0615 3fbe bdb0 e43d a3a8 253e
000002c0: 928e 233e b50b e1bc 7d36 71be 2ea4 a73c
000002d0: 97bb 223c e8c7 603c b5a9 bf3c 1154 363e
000002e0: 9fd0 44be fad1 933e a04c 76bd 9a6a fcbb
000002f0: 103f 86be 4ea0 2a3c f467 f43d 19d1 43be
00000300: c6ce 6dbe 7931 2bbd 46b5 54bd 44ea 61bc
00000310: 7c17 c53d 0df5 a33d 9be0 90bd 5a7e e7bd
00000320: 8f14 a4be ac86 713e 3067 503e 5bf4 663e
00000330: d3a8 cdbd 4a59 113e 8fcd 743e c4d1 9abb
00000340: 5de1 a5bd 7e0f cfbd 77ae d23d b011 4ebe
00000350: 188c d33e 5a09 653d cc8e 713d ee23 f2bc
00000360: ff53 403e 7395 67be 337f 113e 7663 0bbd
00000370: cb3f 22be b242 1a3d e343 863e 0574 4b3d
00000380: f20b 04be 95eb 9f3d de35 993d 36f1 92be
00000390: 5d78 41bd ef21 98be efa4 77be 3a54 3e3e
000003a0: c7f8 873e 5979 de3d 6373 bd3d 8044 793e
000003b0: 43c0 c7bc 016b 7dbd 3740 ab3e a717 abbd
000003c0: 2a3f 393e 8f29 a03d 6502 733e c0f9 2fbc
000003d0: af07 353d bf48 47be 7d24 fc3d b2d3 0dbe
000003e0: f682 c4bc 3acf a83d 5239 77bd 8a77 313c
000003f0: 85f0 163e fe0a 48be b424 0f3e 336a ae3b

transformer.layers.0.linear1.bias f4 [32]
0.14490424 0.034471765 0.118070215 -0.13396172 -0.059612416 0.046502035 -0.119316034 -0.28257954
-0.03061106 0.11673148 0.069549866 -0.16075353 0.030436173 -0.15734275 -0.030072816 0.088359125
-0.31162256 0.043733776 -0.011488933 -0.050734323 -0.103357434 -0.16507639 0.03629127 -0.13625826
-0.08379536 -0.05479867 0.059072882 -0.23230793 0.06816331 -0.10544599 -0.060680524 0.03709926
00000000: c761 143e 4432 0d3d ccce f13d 432d 09be
00000010: 262c 74bd eb78 3e3d f75b f4bd 44ae 90be
00000020: 0cc4 fabc ea10 ef3d 2970 8e3d 939c 24be
00000030: 4855 f93c 751e 21be 445b f6bc a1f5 b43d
00000040: fe8c 9fbe 3022 333d 143c 3cbc cbce 4fbd
00000050: 10ad d3bd c909 29be 28a6 143d 4987 0bbe
00000060: e79c abbd 9274 60bd 68f6 713d 21e2 6dbe
00000070: 3599 8b3d 11f4 d7bd 248c 78bd 65f5 173d

transformer.layers.0.linear2.weight f4 [16, 32]
0.0460101 -0.018093467 0.08115093 0.06918051 0.03567957 -0.01883335 -0.0054809027 0.053235974
0.05686965 -0.03310417 -0.08981807 0.013983881 -0.091055915 0.1579543 -0.057338405 -0.0785858
-0.107979946 0.0061361264 0.058407508 0.08871712 -0.13253605 -0.006907796 -0.05008526 0.010922337
-0.13083719 0.029641386 0.15759303 -0.06664339 0.12898842 0.09401371 -0.032689154 0.060772836
-0.03085918 -0.063308604 -0.04454865 -0.100198 -0.16927893 -0.23542757 -0.25664422 -0.18438756
0.055451576 0.051368713 -0.027334578 0.112540305 -0.03507155 0.09138748 -0.123467356 -0.14663878
-0.21410413 -0.11775925 -0.118526176 0.03265775 0.22207865 0.109449066 -0.17027763 -0.020438127
-0.16329391 -0.14959528 0.09755557 0.21143873 0.10402631 -0.15079667 0.031753868 -0.025389066
0.20845054 -0.057604592 0.18577653 -0.08415304 0.10951218 -0.14603664 -0.06514591 0.09071001
-0.120947085 -0.15728027 0.12678203 -0.1048702 0.22587441 -0.056580447 -0.026763974 0.019387195
0.10790562 0.08669118 -0.14446022 0.071223676 -0.07893321 0.036448292 -0.05841111 -0.099945255
-0.19376889 -0.13788977 -0.0048799445 -0.0045091035 0.013352426 -0.0016054787 0.18707137 0.07313747
-0.16242713 0.032142326 -0.01571064 0.038022354 0.011470482 -0.046739597 0.19848618 0.09692761
0.11298723 0.18294027 -0.0019124817 -0.117298745 -0.10742068 0.087642305 0.07978804 -0.05472105
-0.036815416 -0.0281049 -0.041871056 0.04445606 0.16132812 -0.2198042 0.12008258 0.20273313
0.16633458 0.035176143 -0.004065789 0.09431091 0.213943 0.06631511 -0.019004924 -0.09290962
-0.06179737 0.09839714 -0.009081248 0.030242924 -0.15154637 0.07221504 0.06747258 0.13897254
-0.20800002 -0.09760724 -0.17628558 0.033097055 -0.14122342 0.13632253 -0.18859507 0.03998142
0.16529183 0.16937071 0.16694966 0.009680577 -0.12395496 -0.12367638 0.16622588 -0.016555112
-0.0012393435 0.010428313 0.022496369 -0.04556067 0.00647895 -0.20404686 -0.08280351 -0.074580334
-0.079464376 -0.045058057 -0.114713155 -0.11003019 0.100684725 -0.16893719 -0.17415746 0.06205127
-0.17825802 -0.15988985 0.032634046 0.05191475 -0.038904384 -0.026752708 -0.003357917 -0.03326459
-0.032213338 -0.10941319 -0.11286856 0.116797514 -0.035776887 0.14414504 0.09201184 0.15347512
0.047845144 -0.009093908 0.063336685 -0.07217688 -0.11268338 -0.25917667 -0.057431888 -0.053017233
-0.00072414376 0.1937806 0.15455014 -0.039412435 -0.16091989 0.07800998 0.047240343 -0.19983143
0.016526762 0.37271127 -0.079862006 -0.087357484 0.13952325 -0.048664093 0.009631371 -0.22043857
-0.16902955 -0.020104818 -0.03507702 0.066227466 -0.013682317 0.016456211 -0.038528845 0.14423467
0.32630134 0.05954039 0.1695911 0.17447485 0.0006343052 0.095617846 0.027157031 0.035719067
-0.13647583 0.053903755 0.03034537 0.08735287 0.050063375 0.13741195 0.2504167 -0.038133793
0.121271215 0.024050971 -0.068812184 0.10423782 -0.22738789 -0.033876147 0.19262344 -0.03456412
-0.10428456 0.06780644 -0.13949418 -0.2117315 0.070214234 -0.10381726 -0.08276656 0.061821252
0.34309766 0.077132985 -0.012601169 0.0039549265 0.10667972 0.21327421 0.10428715 -0.13405797
00000000: 1675 3c3d c038 94bc 7532 a63d 83ae 8d3d
00000010: be24 123d 6648 9abc 2599 b3bb f70d 5a3d
00000020: 26f0 683d 3d98 07bd 89f2 b7bd a61c 653c
00000030: 867b babd c6be 213e addb 6abd 98f1 a0bd
00000040: 9724 ddbd 8f11 c93b b63c 6f3d 52b1 b53d
00000050: 88b7 07be cb5a e2bb 3426 4dbd 9af3 323c
00000060: 2ffa 05be 7ed2 f23c 1160 213e 547c 88bd
00000070: 8a15 043e 438a c03d 10e5 05bd f0ec 783d
00000080: 64cc fcbc f1a7 81bd a578 36bd 9c34 cdbd
00000090: 7557 2dbe ed13 71be df66 83be 18d0 3cbe
000000a0: 3121 633d 0068 523d c4ec dfbc 887b e63d
000000b0: 30a7 0fbd 5c29 bb3d 74dc fcbd 7a28 16be
000000c0: 1d3e 5bbe c32b f1bd dabd f2bd 22c4 053d
000000d0: 9668 633e d526 e03d 425d 2ebe dc6d a7bc
000000e0: 8536 27be 812f 19be 37cb c73d 6583 583e
000000f0: bf0b d53d 716a 1abe 5810 023d bbfc cfbc
00000100: 0f74 553e cbf2 6bbd 343c 3e3e 6e58 acbd
00000110: ec47 e03d a18a 15be 386b 85bd 2bc6 b93d
00000120: 1bb3 f7bd 140e 21be 26d3 013e 30c6 d6bd
00000130: 9f4b 673e e6c0 67bd 1f40 dbbc e5d1 9e3c
00000140: 9ffd dc3d 258b b13d 61ed 13be b8dd 913d
00000150: bca7 a1bd ce4a 153d 7d40 6fbd 19b0 ccbd
00000160: 5a6b 46be fa32 0dbe f1e7 9fbb 1ac1 93bb
00000170: 22c4 5a3c ed6e d2ba a38f 3f3e 19c9 953d
00000180: 4c53 26be aca7 033d 9ab3 80bc 54bd 1b3d
00000190: b0ee 3b3c 0572 3fbd f63f 4b3e fc81 c63d
000001a0: d965 e73d b254 3b3e 3dac faba 533a f0bd
000001b0: 60ff dbbd cf7d b33d e967 a33d 2e23 60bd
000001c0: c3cb 16bd 3f3c e6bc fc80 2bbd 8f17 363d
000001d0: 3333 253e 5a14 61be dbed f53d 4699 4f3e
000001e0: 9d53 2a3e dc14 103d 4f3a 85bb 1426 c13d
000001f0: e013 5b3e 37d0 873d 37b0 9bbc 6647 bebd
00000200: 3d1f 7dbd 7184 c93d 84c9 14bc 02c0 f73c
00000210: f92e 1bbe 7be5 933d 102f 8a3d d14e 0e3e
00000220: f5fd 54be 4ee6 c7bd 3584 34be c790 073d
00000230: df9c 10be 2298 0b3e 111f 41be 8fc3 233d
00000240: 4342 293e 846f 2d3e daf4 2a3e 489b 1e3c
00000250: 19dc fdbd 0b4a fdbd 1e37 2a3e 969e 87bc
00000260: 7871 a2ba 84db 2a3c 4e4a b83c d39d 3abd
00000270: 5f4d d43b a9f1 50be e394 a9bd 93bd 98bd
00000280: 38be a2bd cc8e 38bd bbee eabd 8257 e1bd
00000290: cb33 ce3d dffd 2cbe 5556 32be 7929 7e3d
000002a0: 4589 36be 2aba 23be 47ab 053d 90a4 543d
000002b0: 345a 1fbd 7f28 dbbc 8010 5cbb 7340 08bd
000002c0: 22f2 03bd 0614 e0bd a227 e7bd 8933 ef3d
000002d0: c98a 12bd c29a 133e b470 bc3d 9528 1d3e
000002e0: 45f9 433d 9dfe 14bc aab6 813d 79d1 93bd
000002f0: 8bc6 e6bd ceb2 84be b33d 6bbd 9928 59bd
00000300: 77d4 3dba 6c6e 463e 6442 1e3e ef6e 21bd
00000310: 2fc8 24be b2c3 9f3d 177f 413d 9ca0 4cbe
00000320: 2263 873c 03d4 be3e b18e a3bd 7be8 b2bd
00000330: 2fdf 0e3e 0054 47bd e6cc 1d3c a6ba 61be
00000340: 1516 2dbe dcb2 a4bc ecac 0fbd 44a2 873d
00000350: cc2b 60bc 2dcf 863c 6cd0 1dbd 41b2 133e
00000360: f810 a73e a0e0 733d 4aa9 2d3e 89a9 323e
00000370: 8047 263a 4ad3 c33d 6c78 de3c 284e 123d
00000380: 52c0 0bbe 2fca 5c3d da96 f83c 10e6 b23d
00000390: 410f 4d3d b8b5 0c3e 9e36 803e 2e32 1cbd
000003a0: 0b5d f83d 8b06 c53c 67ed 8cbd a37a d53d
000003b0: 5fd8 68be b7c1 0abd 143f 453e 1b93 0dbd
000003c0: 2593 d5bd 1ade 8a3d 90d7 0ebe 24d0 58be
000003d0: 7bcc 8f3d 259e d4bd 8481 a9bd 4838 7d3d
000003e0: 7faa af3e e6f7 9d3d 2275 4ebc 5498 813b
000003f0: e67a da3d 8e64 5a3e 8094 d53d 7e46 09be

transformer.layers.0.linear2.bias f4 [16]
-0.032906186 -0.05399458 -0.10985782 0.14068738 0.08400674 0.0021209167 0.021078974 0.09801647
0.12943558 -0.1297183 0.004529828 0.001424476 0.12799662 0.073707364 0.12899587 -0.0134474
00000000: a3c8 06bd 6c29 5dbd 23fd e0bd 5a10 103e
00000010: ba0b ac3d 14ff 0a3b d0ad ac3c dcbc c83d
00000020: c38a 043e e0d4 04be f46e 943b 7cb5 ba3a
00000030: 8c11 033e e3f3 963d 7e17 043e 7c52 5cbc

transformer.layers.0.norm1.weight f4 [16]
1.0529479 0.8046546 1.0809044 0.9664774 1.0196503 1.0199581 1.0044618 1.0314473
1.0556703 0.937735 0.89708346 1.0865442 1.0426688 0.8594285 1.2527723 1.1149075
00000000: ffc6 863f d8fd 4d3f 135b 8a3f 106b 773f
00000010: e783 823f fd8d 823f 3492 803f 7706 843f
00000020: 3420 873f 670f 703f 43a7 653f e113 8b3f
00000030: 2c76 853f 8203 5c3f d85a a03f 4ab5 8e3f

transformer.layers.0.norm1.bias f4 [16]
-0.0010440451 -0.15952905 0.005375628 0.11351101 0.045230225 -0.15111323 -0.0048454185 -0.001682946
0.035379436 -0.03291626 -0.011702182 0.013495388 0.06295915 -0.0075971843 0.14401786 0.13595112
00000000: 57d8 88ba 955b 23be 0926 b03b 7678 e83d
00000010: 5443 393d 6dbd 1abe 51c6 9ebb 4c96 dcba
00000020: 07ea 103d 33d3 06bd 82ba 3fbc c31b 5d3c
00000030: baf0 803d cdf1 f8bb 6b79 133e c536 0b3e

transformer.layers.0.norm2.weight f4 [16]
1.060156 1.0203828 1.1300865 0.8878172 1.0905771 1.0396869 1.0443261 1.0531509
1.0740404 1.0429676 0.99729824 1.029897 1.0375384 0.9454733 1.1743479 1.1403712
00000000: 31b3 873f e79b 823f ada6 903f fd47 633f
00000010: 0898 8b3f 7614 853f 7aac 853f a6cd 863f
00000020: 287a 893f f67f 853f f04e 7f3f aad3 833f
00000030: 0fce 843f 8a0a 723f 0851 963f aff7 913f

transformer.layers.0.norm2.bias f4 [16]
0.054595828 -0.13277416 0.017055675 0.056774862 -0.052587785 -0.13957536 0.008399233 0.017100632
-0.049029294 -0.016891425 -0.016154105 -0.017883265 0.09519058 -0.04721942 0.17534141 0.065155946
00000000: e09f 5f3d f3f5 07be 58b8 8b3c c28c 683d
00000010: 4a66 57bd d8ec 0ebe f09c 093c a016 8c3c
00000020: f1d2 48bd e35f 8abc 9d55 84bc ed7f 92bc
00000030: 47f3 c23d 2769 41bd b38c 333e 7b70 853d

transformer.layers.1.self_attn.in_proj_weight f4 [48, 16]
-0.45247114 -0.34992042 0.28910655 -0.05151492 0.018445088 0.34892997 0.19054924 0.062480565
0.08929839 0.1383347 0.24643348 0.008087407 0.11283003 0.117935255 0.3544476 0.2791761
-0.4276945 0.16812836 0.07128142 0.23435001 -0.37167633 -0.37725574 0.3119474 0.24147604
0.20526537 -0.30048308 0.03257473 -0.12189333 -0.20312098 0.13391341 -0.078484386 0.0160711
-0.13742785 0.13310464 0.23302482 0.13266775 0.4580643 -0.24352212 -0.16087101 0.074303254
0.19007425 -0.09937546 0.29297036 0.40873381 -0.028623363 0.33789715 -0.26037917 -0.2383463
0.006926495 0.36333197 -0.25264868 -0.1278038 0.35608146 0.20763703 0.13609268 -0.3983985
0.2596289 0.4960966 0.044470944 -0.15375434 -0.29700837 0.041520376 -0.43950114 0.301801
-0.0044275178 0.1609846 -0.23738247 -0.41113478 -0.3448091 -0.13294533 0.23662141 -0.20417577
-0.044012714 -0.19783679 -0.3387154 -0.06862658 0.15324429 0.09615419 0.42204657 0.33158857
-0.33616117 -0.017572375 0.3236891 0.045411963 -0.18104526 -0.1525802 0.42720836 0.05609237
0.13885674 0.09588906 0.28513214 -0.033596884 0.36429626 0.31165677 -0.34514657 0.38550615
-0.17375788 -0.033456452 -0.5552204 -0.33710992 0.44309628 0.019853558 0.5748816 -0.06341276
-0.43512943 0.13557681 -0.18990996 -0.19267002 -0.32042924 -0.07658827 0.11384677 0.17611317
0.18076666 0.3685178 0.27595967 0.059389494 -0.0550903 0.089447536 -0.062001016 -0.36906368
0.3583574 0.109895825 0.15022305 0.03936235 -0.22836179 -0.13413772 -0.48283532 0.052240945
-0.023918964 -0.0771023 -0.20753013 -0.046124898 0.26664054 0.10767163 -0.04195315 -0.22612503
-0.288126 0.23368526 0.13239634 -0.21110786 -0.21934785 -0.04469333 0.33208758 -0.22360569
0.20235455 -0.21924296 -0.24540043 0.14124052 -0.2552718 0.27546078 -0.122549295 0.20052594
-0.21554098 -0.38110915 -0.0076741967 -0.18318672 0.2509854 -0.20148286 0.20004873 0.12529847
0.1982811 -0.20588425 -0.2782153 0.2796559 0.34919712 -0.33451492 -0.17210433 0.30018225
0.36648944 0.16412365 -0.16042848 -0.3031244 -0.11967682 0.05020162 0.3305222 -0.16329904
-0.16254728 0.21715192 -0.15136158 -0.19900776 -0.26189724 0.011984404 0.43822753 0.11808126
-0.20320883 0.044191618 -0.01443301 -0.107426696 -0.1679859 0.17580384 0.11613451 0.11087323
0.1958986 0.2532337 0.18745616 0.07204738 -0.19355096 0.15897755 -0.05273085 0.031479284
-0.30338117 0.29505727 -0.22996873 -0.011768441 0.15813303 0.19293669 -0.20184577 -0.1376859
-0.4789885 -0.30885687 -0.0062922766 -0.05140813 -0.0018722635 -0.23502402 -0.01259516 -0.42318055
-0.17267692 0.032048877 -0.03906173 -0.003998732 0.023607798 0.29288527 -0.38426697 0.23760708
-0.07167683 0.057070177 0.16504465 0.16501932 -0.16069388 -0.33075243 -0.40484786 0.040142525
0.42940342 -0.06314383 0.29238912 0.43784025 -0.28292087 -0.027324691 -0.27105692 0.12887017
-0.20394592 -0.009361327 -0.18200956 -0.09932043 0.334842 0.22795774 0.049199592 -0.13928927
0.14690942 -0.2531537 0.5819193 0.2493576 -0.16917288 0.21547668 0.1819411 -0.13267025
00000000: 4caa e7be c528 b3be c605 943e 4f01 53bd
00000010: 271a 973c f3a6 b23e 571f 433e 9feb 7f3d
00000020: 13e2 b63d 9da7 0d3e 0f59 7c3e 0b81 043c
00000030: 6e13 e73d 0a88 f13d 287a b53e 2bf0 8e3e
00000040: c6fa dabe d729 2c3e fefb 913d 73f9 6f3e
00000050: 5c4c bebe aa27 c1be 92b7 9f3e 7f45 773e
00000060: 1631 523e ebd8 99be 156d 053d 36a3 f9bd
00000070: f2fe 4fbe 9920 093e 6cbc a0bd 8aa7 833c
00000080: e3b9 0cbe 954c 083e 0f9e 6e3e 0eda 073e
00000090: 6787 ea3e dd5d 79be 5fbb 24be 4e2c 983d
000000a0: d3a2 423e 5c85 cbbd 3600 963e 8f45 d13e
000000b0: 8b7b eabc db00 ad3e 6b50 85be 0d11 74be
000000c0: a7f7 e23b a606 ba3e 2b5b 81be 00df 02be
000000d0: 4f50 b63e cd9e 543e e15b 0b3e e3fa cbbe
000000e0: 14ee 843e 6000 fe3e 2a27 363d c771 1dbe
000000f0: 7b11 98be 4511 2a3d 4b06 e1be a985 9a3e
00000100: b614 91bb 26d9 243e 6414 73be 4280 d2be
00000110: d18a b0be d222 08be e24c 723e 7413 51be
00000120: ad46 34bd ba95 4abe 1b6c adbe 188c 8cbd
00000130: 12ec 1c3e 7dec c43d 7d16 d83e fac5 a93e
00000140: 511d acbe f1f3 8fbc 94ba a53e e501 3a3d
00000150: ee63 39be fc3d 1cbe 0ebb da3e 1dc1 653d
00000160: 7630 0e3e 7c61 c43d d7fc 913e e39c 09bd
00000170: 0a85 ba3e 7a91 9f3e 0db7 b0be 1061 c53e
00000180: 96ed 31be a209 09bd ed22 0ebf ac99 acbe
00000190: 84dd e23e eea3 a23c 712b 133f 8dde 81bd
000001a0: 49c9 debe a6d4 0a3e c277 42be 4a4b 45be
000001b0: 4d0f a4be 50da 9cbd 7f28 e93d 0357 343e
000001c0: e51a 393e 5dae bc3e 964a 8d3e 6642 733d
000001d0: 5ea6 61bd 4530 b73d c7f4 7dbd eaf5 bcbe
000001e0: 9f7a b73e 1011 e13d 12d4 193e 6a3a 213d
000001f0: acd7 69be 665b 09be 3136 f7be 9afa 553d
00000200: b4f1 c3bc d0e7 9dbd c782 54be 76ed 3cbd
00000210: 1c85 883e f282 dc3d 11d7 2bbd 528d 67be
00000220: 4085 93be 304b 6f3e e892 073e a92c 58be
00000230: b99c 60be 5a10 37bd 6207 aa3e e4f8 64be
00000240: 0836 4f3e 3a81 60be 404a 7bbe 5ba1 103e
00000250: fcb2 82be 3209 8d3e 20fb fabd ac56 4d3e
00000260: c6b6 5cbe bd20 c3be d477 fbbb 4d95 3bbe
00000270: 2981 803e 8651 4ebe 93d9 4c3e 3e4e 003e
00000280: 330a 4b3e 52d3 52be 3c72 8ebe 0f2f 8f3e
00000290: f7c9 b23e 8a45 abbe 1e3c 30be 7db1 993e
000002a0: 81a4 bb3e 0810 283e 5d47 24be 1f33 9bbe
000002b0: 1f19 f5bd 37a0 4d3d 353a a93e dd37 27be
000002c0: cb72 26be 135d 5e3e 88fe 1abe b1c8 4bbe
000002d0: 6517 86be 3c5a 443c 5c5f e03e 96d4 f13d
000002e0: fa15 50be 4502 353d 6e78 6cbc 8702 dcbd
000002f0: 7f04 2cbe ec05 343e eed7 ed3d 8111 e33d
00000300: a599 483e d9a7 813e 82f4 3f3e 948d 933d
00000310: 3932 46be 03cb 223e 4efc 57bd 6cf0 003d
00000320: c754 9bbe bf11 973e ec7c 6bbe 6bd0 40bc
00000330: a0ed 213e 3291 453e a8b0 4ebe 88fd 0cbe
00000340: fb3d f5be 7d22 9ebe 712f cebb 5591 52bd
00000350: bd66 f5ba 23aa 70be ee5b 4ebc 1fab d8be
00000360: 38d2 30be af45 033d 31ff 1fbd cc07 83bb
00000370: 2465 c13c 0ff5 953e a4be c4be 454f 733e
00000380: 4dcb 92bd 6bc2 693d 7701 293e d3fa 283e
00000390: f08c 24be 6258 a9be 3848 cfbe 7d6c 243d
000003a0: c4da db3e 8d51 81bd 07b4 953e 992c e03e
000003b0: 01db 90be 08d8 dfbc f9c7 8abe 8bf6 033e
000003c0: 33d7 50be 4060 19bc b760 3abe 8268 cbbd
000003d0: 6970 ab3e c16d 693e 8385 493d d9a1 0ebe
000003e0: 6c6f 163e 5d9d 81be aaf8 143f 9957 7f3e
000003f0: a83b 2dbe eba5 5c3e c54e 3a3e b6da 07be

transformer.layers.1.self_attn.in_proj_bias f4 [48]
-0.25260594 0.27812138 -0.2325723 -0.20811383 0.15738626 -0.08689685 -0.12358831 -0.3307008
-0.21523343 0.2750313 -0.03914693 -0.062159415 -0.15965894 -0.107934356 -0.1852628 0.0719979
0.0005366388 9.041272e-06 -2.263544e-06 2.6663154e-05 0.00063013 -0.00050219527 -0.0003731345 0.00025335877
8.0528156e-07 0.00017051592 0.0003359019 0.00052446953 8.1691986e-05 -0.00021822995 0.00016869737 7.192474e-05
-0.010366129 0.011351379 -0.006909586 -0.0016486282 0.09452862 -0.039282728 0.0040049413 -0.036387235
0.02829064 0.052317325 -0.0040658847 -0.060275838 0.0014690051 -0.01425854 -0.06741139 -0.15704389
00000000: 9155 81be ed65 8e3e 6f27 6ebe cb1b 55be
00000010: dd29 213e faf6 b1bd de1b fdbd 9e51 a9be
00000020: 2766 5cbe e7d0 8c3e 8858 20bd df9a 7ebd
00000030: a27d 23be b00c ddbd 88b5 3dbe a373 933d
00000040: 38ad 0c3a f8af 1737 64e7 17b6 b0aa df37
00000050: 4f2f 253a c1a5 03ba 44a1 c3b9 3dd5 8439
00000060: 872a 5835 85cc 3239 fd1b b039 8e7c 093a
00000070: 0d52 ab38 a8d4 64b9 5be4 3039 4dd6 9638
00000080: b2d6 29bc 22fb 393c cf69 e2bb c816 d8ba
00000090: 3998 c13d ede6 20bd e23b 833b c80a 15bd
000000a0: c6c1 e73c b14a 563d 1d3b 85bb cce3 76bd
000000b0: a28b c03a a79c 69bc fc0e 8abd 1dd0 20be
